******************************* K-fold Training ********************************

********************************** Fold [1/3] **********************************
************************* Model: seq2seq_w_attn_on_hid *************************
Seq2Seq(
  (encoder): Encoder(
    (embeddings): ModuleList(
      (0): Embedding(3050, 50)
      (1): Embedding(8, 4)
      (2): Embedding(4, 2)
      (3): Embedding(11, 5)
      (4): Embedding(4, 2)
    )
    (cal_embedding): Embedding(31, 16)
    (rnns): ModuleList(
      (0): LSTM(132, 128, bidirectional=True)
      (1): LSTM(256, 128, bidirectional=True)
    )
    (rnn_dropouts): ModuleList(
      (0): Dropout(p=0.2, inplace=False)
    )
  )
  (decoder): AttnDecoder(
    (embeddings): ModuleList(
      (0): Embedding(3050, 50)
      (1): Embedding(8, 4)
      (2): Embedding(4, 2)
      (3): Embedding(11, 5)
      (4): Embedding(4, 2)
    )
    (cal_embedding): Embedding(31, 16)
    (attns): ModuleList(
      (0): Linear(in_features=644, out_features=364, bias=True)
      (1): Linear(in_features=644, out_features=364, bias=True)
    )
    (attn_combine): ModuleList(
      (0): Linear(in_features=256, out_features=128, bias=True)
      (1): Linear(in_features=256, out_features=128, bias=True)
    )
    (rnns): ModuleList(
      (0): LSTM(132, 128, bidirectional=True)
      (1): LSTM(256, 128, bidirectional=True)
    )
    (rnn_dropouts): ModuleList(
      (0): Dropout(p=0.0, inplace=False)
    )
    (pred): Linear(in_features=256, out_features=9, bias=True)
  )
)

********************************* Loading Data *********************************
*********************************** Training ***********************************

xxxxxxxxxxxxxxxxxxxxxxxxxxxxxxxxx Epoch [1/2] xxxxxxxxxxxxxxxxxxxxxxxxxxxxxxxxxx
Training Loss: 0.3540, Training Error: 0.3843, Training Secondary Error: 36.1862
Validation Loss: 0.3366, Validation Error: 0.3366, Validation Secondary Error: 28.8360
…
