******************************* K-fold Training ********************************

********************************** Fold [1/3] **********************************
**************************** Model: dilated_seq2seq ****************************
Seq2Seq(
  (encoder): Encoder(
    (embeddings): ModuleList(
      (0): Embedding(3049, 50)
      (1): Embedding(7, 4)
      (2): Embedding(3, 2)
      (3): Embedding(10, 5)
      (4): Embedding(3, 2)
    )
    (cal_embedding): Embedding(31, 16)
    (drnns): ModuleList(
      (0): DRNN(
        (rnn_dropouts): ModuleList(
          (0): Dropout(p=0.2, inplace=False)
        )
        (cells): Sequential(
          (0): LSTM(132, 128)
          (1): LSTM(128, 128)
        )
      )
      (1): DRNN(
        (rnn_dropouts): ModuleList(
          (0): Dropout(p=0.2, inplace=False)
        )
        (cells): Sequential(
          (0): LSTM(132, 128)
          (1): LSTM(128, 128)
        )
      )
    )
  )
  (decoder): Decoder(
    (embeddings): ModuleList(
      (0): Embedding(3049, 50)
      (1): Embedding(7, 4)
      (2): Embedding(3, 2)
      (3): Embedding(10, 5)
      (4): Embedding(3, 2)
    )
    (cal_embedding): Embedding(31, 16)
    (rnn): LSTM(132, 128, num_layers=2, bidirectional=True)
    (pred): Linear(in_features=256, out_features=1, bias=True)
  )
  (fc_h0): Linear(in_features=6, out_features=4, bias=True)
  (fc_h1): Linear(in_features=6, out_features=4, bias=True)
)

********************************* Loading Data *********************************
*********************************** Training ***********************************

xxxxxxxxxxxxxxxxxxxxxxxxxxxxxxxxx Epoch [1/2] xxxxxxxxxxxxxxxxxxxxxxxxxxxxxxxxxx
Training Loss: 0.7816, Training Error: 0.9868, Training Secondary Error: 0.7463
Validation Loss: 0.8672, Validation Error: 0.8662, Validation Secondary Error: 0.7288
…
